weights/mnist_model.npz (npz, 66274 bytes, 6 tensors)

W1 f8 [10, 784]
00000000: fee9 b240 11ba ba3f d30c 1d76 3bec 973f
00000010: 76aa 654b 2931 b2bf 5f36 c2e2 15ff a5bf
00000020: 9105 6918 9510 783f 0fcc 02b1 54f6 b63f
00000030: b021 e58a cdd6 a33f 6229 22c8 5169 90bf
00000040: 4f36 ba54 e007 873f c26f 90ef 79e1 a93f
00000050: 6a5f a472 169e a03f 39d4 dc6a c49b ad3f
00000060: f88c 9852 96d3 a73f 2495 d5fb b90f a1bf
00000070: 5246 82ac 5a70 973f 105e f890 ae9e b7bf
00000080: f682 5c3b ea08 97bf cd62 14e5 410c a13f
00000090: 231c 0a80 0454 77bf 2b05 c99c a75a aa3f
000000a0: 4510 454a 1317 a1bf f86a 5276 8c2d a6bf
000000b0: 2ce9 ec2e 6bf9 b7bf 73fc 0962 d78d 803f
000000c0: bc5d 6f16 9a46 9b3f a907 1c08 ca03 b0bf
000000d0: 5562 902f 9b5b b23f a695 47da a349 a13f
000000e0: b80c e0bb cfde 743f 1b90 3325 0801 52bf
000000f0: 790a fa19 fe17 983f 8515 a3bf 9182 b4bf
00000100: 15f2 d66d 66a3 86bf 7324 3436 1334 b9bf
00000110: 6b08 3ee4 816e b5bf 2f48 c271 3cf1 b13f
00000120: 3b96 4770 dc58 96bf d651 932f 419d b03f
00000130: 90f9 40b4 a515 903f c673 9bfa b9ee 73bf
00000140: c448 543f acea 9ebf 0d5b 0b11 23ef b23f
00000150: eefa f838 403b b6bf 4b74 c8fa 503f a13f
00000160: bc95 e19f 8701 a73f aba9 387b 92d9 ad3f
00000170: 1fd7 c6e3 669c b83f 5db2 4412 0a10 923f
00000180: 70c8 3721 ba85 aabf cfa5 4832 8302 6dbf
00000190: 1d31 73ee ebf4 bd3f c630 2d82 e429 96bf
000001a0: 5389 d697 03fd 98bf 7a4b 8649 6589 9dbf
000001b0: 6a87 5292 52ff 84bf 3c57 2339 4da5 953f
000001c0: c3ac e69c cdff b73f 8e65 b92f 27a2 9c3f
000001d0: cc24 d80a 1c66 8a3f 2e45 2e5d c12a 743f
000001e0: 3d0a b1fd 6251 a7bf f2f0 7313 1b42 a53f
000001f0: 5c43 1e93 ac99 a43f 193f 05e1 dbcb 933f
00000200: e196 5ab5 7d7a a4bf 20ba d058 73cd b23f
00000210: 6ae0 10cb 9771 8ebf a729 e8a7 772a a53f
00000220: 2763 27cc f237 953f 8130 72e5 2a8b ad3f
00000230: a3dc 3d54 7d92 88bf d6e0 b8ef 5d83 abbf
00000240: 9d9d 9350 741a 97bf 1996 78b5 9782 a3bf
00000250: debb 925f 60c4 a0bf 5ec6 4215 108f 54bf
00000260: 2b2b c23a 507b 85bf bdf4 1d9e 9010 a3bf
00000270: f250 973d 4875 a63f c64a 0c86 f397 b0bf
00000280: a0e8 c18c 0991 76bf 4813 d6f9 ce4d 9e3f
00000290: f510 8bc3 99fc 9c3f 05fd ad05 bf4e 9b3f
000002a0: 143a 498c 6b41 54bf f564 a430 c190 8b3f
000002b0: 7b96 3d5f daff 98bf c994 6a8e 2c06 8d3f
000002c0: bcbd f972 8106 90bf 0c8e 92d9 f2b3 963f
000002d0: 2722 aff6 76a0 a43f f320 21fb 1265 853f
000002e0: 3147 b075 1235 793f c4b3 2060 44fb b33f
000002f0: 831c d28e 53de 9f3f d1be 650f 7bc3 ad3f
00000300: 74af 49ad a2e0 b33f 3d81 3be6 209b b73f
00000310: b916 70a0 ff08 c13f a6ea fc3e 29fc c03f
00000320: a5c2 6360 c377 b53f 686b 1fba fa19 a1bf
00000330: 67da 5ea8 c9b8 b73f 06f6 2ef0 a1b3 a73f
00000340: 4135 8ff9 1b48 b63f 2fbf c32b 9568 b23f
00000350: fbbe c8cb 4a0a 97bf cfba c4d1 171f 90bf
00000360: 4204 c62c 8fb2 95bf a411 4861 fc99 b1bf
00000370: d70d 9831 26d4 a1bf eb57 6396 d44c 663f
00000380: 8e2c 17ac 3da9 a5bf 6917 425e 53b8 ae3f
00000390: 1773 aed0 63d0 7abf 1a73 a784 e7be 82bf
000003a0: 197d 1f39 8f6d 7abf 5dcb fbe8 1007 a33f
000003b0: 4820 c4b6 4772 62bf 2879 742f 7af9 943f
000003c0: dad3 dd43 babd b33f 0f09 b769 5450 a03f
000003d0: 3c1c cbb9 24ee a33f 9564 5c83 7007 b73f
000003e0: b66a b31e 89a0 b63f 2098 6f03 f318 963f
000003f0: efc0 90ff 7ebf a53f 57cd 96b9 d45e b53f
00000400: 0106 a154 1ee1 97bf 9933 6c03 7faf 963f
00000410: 5670 aeb4 2a7a b33f 89a1 3a3d e319 a43f
00000420: bf79 dbc2 79a7 b3bf 8c59 10d3 5585 95bf
00000430: e5c9 1a62 46b2 77bf 4843 0161 30b4 923f
00000440: 3bca 87e1 1f0d 943f 36b1 d305 b936 b13f
00000450: 60d6 dbd4 4330 9e3f 7664 225d 09ff babf
00000460: a4d0 58a4 d2b1 933f 594b 8b62 e5dd ad3f
00000470: 3e56 a870 9f93 81bf 7540 7325 5663 b1bf
00000480: 0a01 4ede 1d4f ae3f 4301 bd2c 191d b53f
00000490: 4893 bfbf b8bd a2bf 36c8 650b 6c5e b73f
000004a0: b3db a069 6026 933f 161a 186f 121e ae3f
000004b0: 7d09 da2a e485 a23f 1001 7d0b c4f1 b03f
000004c0: 623b 24a6 4053 a8bf fa43 f9a0 8588 b43f
000004d0: a8b9 0308 ec17 673f a5fb 035e 7310 a73f
000004e0: 1068 1d21 fbc4 a03f 08de 4e51 0f4b 963f
000004f0: 439b f731 b83b 683f daf0 f292 434f a4bf
00000500: 1af0 17a6 2f79 7abf 2c20 8b54 917d 933f
00000510: 53d2 b06a 9487 823f 0b22 dd0e 533b a6bf
00000520: 611d 7d05 ebb8 aebf 5ac8 5b52 080d a33f
00000530: 0972 7085 7715 9b3f ff9e 25fb 083c 9a3f
00000540: 68df f2d3 72ad 8b3f 6e5c 17c3 2c0f a13f
00000550: cc41 e906 b68b b8bf 3ea2 4994 859c 8c3f
00000560: e623 0e25 baa2 a53f f3e8 2aa6 6cf6 b13f
00000570: ff8e e5d0 1fc3 a53f f98e a792 7f70 a63f
00000580: de1c a0eb 2fa5 8e3f 6c39 e327 4c9a ad3f
00000590: a547 a885 3d0f b73f a383 a5a1 30b0 a23f
000005a0: 2e1c b9cc f2a5 a43f 9b31 62ab 4056 af3f
000005b0: a1ed 537b 0a9c b43f 8f56 a40a 99cc bb3f
000005c0: 8f14 076a be00 913f 7faa 052e e55c b73f
000005d0: d021 fd26 16d9 c13f 1847 8e23 aa89 9a3f
000005e0: d481 a120 3494 9d3f 9749 0d03 8774 a63f
000005f0: bc26 e311 01df a03f 6abe 61aa af3b 963f
00000600: 545e 8aec 7c00 9c3f 3b43 efdb b47b 913f
00000610: 915a 6a55 9a29 563f e82e 1904 619b 7c3f
00000620: ecab b344 566d a4bf 715f f585 744c b53f
00000630: 6800 d944 ad5e b63f a2ba cf4f 3ade 6abf
00000640: 39cd afbe a553 ab3f efc0 46c3 3ced a83f
00000650: 359a c251 d966 82bf b0f1 e8bd 2f17 a63f
00000660: 433e d419 f7db 8c3f 7ba0 6eb3 ed03 b23f
00000670: d472 6f57 9025 943f 5374 72a9 fc39 a53f
00000680: 21f0 6bbc 8294 b63f 0f5e c447 a01d bb3f
00000690: ee13 8d1c bc8c a53f 1e9d 5b3a 01b8 bc3f
000006a0: 73d1 633a bc21 bb3f 7656 8123 392a c13f
000006b0: ce56 a8a0 2aa8 b83f 6a13 bd44 c832 b33f
000006c0: aedf f975 d418 a63f 90ce 4161 8158 b23f
000006d0: 5590 9e73 7e0b b73f 69d3 83ea c88e 98bf
000006e0: de16 661a e2e9 b73f c9e0 e5ee 2783 ba3f
000006f0: 97a4 9fe1 24b2 bc3f 6860 83ac dc49 a63f
00000700: d47b 5225 2ebe 913f 3c9c 8b19 2795 a4bf
00000710: f4ba 7165 7fa3 833f 372a fac0 4033 873f
00000720: f4c4 a4cc a25c 603f 9a97 e733 39ac 73bf
00000730: 571a cb07 e057 9b3f 60e5 4140 0924 94bf
00000740: 2f00 174b f01f 9d3f 5451 baf7 0305 a1bf
00000750: 52af 658a ce29 b63f 8afe f530 0639 8e3f
00000760: 5db0 eff1 7a8c 8ebf d850 d595 e61f a93f
00000770: ff9b 2360 0452 b93f 7e89 b348 cb30 b63f
00000780: 92f7 5309 5443 c43f 7aaa d5b3 6649 c13f
00000790: 7c6b 1248 b2a5 bd3f 5a24 69b6 33cc c23f
000007a0: 850e 1d9e 16cc b33f 55e7 5ae3 d090 a83f
000007b0: 058b 5470 7055 78bf 1c05 807f a190 bd3f
000007c0: ba5b 5016 4840 b33f ca09 c27a 546f 893f
000007d0: 9836 3d4b 9686 b43f 5269 0b3d 5232 b2bf
000007e0: b48a df34 53f0 b8bf 0fdf 07ed 4298 a33f
000007f0: 08aa 5bfb 8eed 69bf 2943 2b63 2e9b 6e3f
0.10440166310846874 0.02336209209830715 -0.07106264200926113 -0.04296177285241919 0.005875189212532731 0.08969621011310401 0.038748191075288374 -0.01602676185624697
0.011245491586375026 0.05054837273948422 0.03245611333312477 0.05782903484797725 0.0465361572098803 -0.033323108664982365 0.022889534739596158 -0.09226504363356747
-0.02249494540513105 0.03329664155370935 -0.00569535978195915 0.05147289074785485 -0.0333791759644844 -0.0433162588535278 -0.09364957709923222 0.008083040885365577
0.026636512393307873 -0.06255781839357034 0.07171029959898452 0.033764953990423494 0.005095302067277867 -0.0010988788169976674 0.023529024444096856 -0.08011732987059446
-0.011053848483123333 -0.09845085213977871 -0.08371745893785636 0.07008722092931018 -0.02182335315037263 0.06489951526174961 0.015707577826327646 -0.004866339187825147
-0.030192080846128247 0.0739614407169535 -0.08684159651691534 0.03368619023624627 0.044933546320673895 0.05830056909720168 0.09613650380091741 0.017639310231219663
-0.051801506571693134 -0.0035412371091936077 0.11701845714123178 -0.021644182629913876 -0.02440267194982344 -0.02884443532236556 -0.010252614107517839 0.02113838826411228
0.09374699669449442 0.0279623148802322 0.012890070992414591 0.00492358715827494 -0.045542806118210134 0.04151997196638203 0.04023494048954632 0.019332347497139944
-0.03999703253547949 0.07344742697089446 -0.01486509884317418 0.041339625593610756 0.02072123881393675 0.05770238924842009 -0.011998156674719878 -0.053736625206910624
-0.02256185285378153 -0.0381057175657526 -0.032748233477256625 -0.0012548119603192002 -0.010489107888380275 -0.03723575525416709 0.04386354209751343 -0.06481859228760375
-0.005509412101782157 0.029593690871041717 0.02830734497071404 0.026667580339105452 -0.0012363004945147348 0.013459691330853544 -0.02441350179960587 0.014171932312203943
-0.015649817125845664 0.022170824555940924 0.04028674851685237 0.01044668988119255 0.006154129131589235 0.0780527815520165 0.031121545402609484 0.058132024411745704
0.07764641504917141 0.09221082325848769 0.13308711370352969 0.132695346599424 0.08385869124664198 -0.03340133211141599 0.09266338692291641 0.04629236275603081
0.08703780024298614 0.0719083053443199 -0.02250019902038412 -0.015743610552074124 -0.02118896208549282 -0.06875588774716462 -0.034821694902372684 0.0027221824740122267
-0.04230683065142059 0.06000004315960334 -0.006546392348266725 -0.009153183685094702 -0.0064521402982500526 0.03716328472173445 -0.0022517586386392764 0.020482930323049292
0.07711376339814482 0.031862867264424215 0.03892626541124186 0.08995726782849751 0.0883870792344322 0.02157954891654168 0.042476624199823 0.08347825556739018
-0.02331969634565745 0.02215383966818116 0.0760828677288726 0.03926000711846018 -0.07677422530421206 -0.021016446120563567 -0.005785250601251656 0.018265491409980045
0.019581316128048903 0.06724125282534463 0.02948099123655934 -0.10545404933727007 0.019233027726116916 0.0583335573952783 -0.008582349420105048 -0.06792200483619289
0.05919736231499158 0.08247525541537919 -0.03660371151617042 0.09128451612721808 0.018701082655947675 0.058823181210801476 0.03617775939075594 0.06618905334926617
-0.047510166436146375 0.0802081602098638 0.0028190240847074284 0.04504738352442609 0.03275284556612246 0.021770705545092667 0.0029581639826007657 -0.03966723603068241
-0.006463228347907824 0.019033690247653265 0.009047660356466347 -0.04342135960047607 -0.060004562778483324 0.037208805135279646 0.02644907714794623 0.025619640663903983
0.013514420598184265 0.03331889993176494 -0.0958818213341665 0.013970416629676238 0.04225713445982375 0.07016638809992397 0.042504305124365864 0.043827044155277
0.014963507059304989 0.057817821377841166 0.09007629883879405 0.03650047276710857 0.04032858609257804 0.0612049302299937 0.08050599585469921 0.10859066495717172
0.016604399892248763 0.09126121877276637 0.1394374552130686 0.025915773792411917 0.0288856644550622 0.04385778343443574 0.032951386865148063 0.021712059759407522
0.02734561151245736 0.01707346527456653 0.0013526923336592315 0.006984118431841081 -0.039896675001578646 0.08319786329718483 0.0873821538052667 -0.003279794588244415
0.0533725543281442 0.0486849773764123 -0.008985231216070403 0.043145648891797506 0.014091425395718398 0.07037244444529904 0.019674544655447004 0.04145803039976017
0.08820359325540085 0.10592080833554739 0.04208934639476768 0.11218269037964432 0.1059835093072417 0.13410104974416343 0.09631601736358705 0.07499362638652732
0.04315818729531827 0.07166298508109947 0.09001913378466615 -0.023982180894523895 0.09341252464772817 0.10356378157109981 0.11209326275242613 0.04353227239488505
0.017327042606321744 -0.040200445049599826 0.00958919075330076 0.011328225983807545 0.0019972972560472427 -0.004802916954281056 0.026702404475850674 -0.019668716952286558
0.028442148764725225 -0.03324139021893538 0.08657542113149688 0.01475720250050407 -0.01491638232069919 0.049071508207505665 0.09890773150583242 0.08668203854498377
0.15830469565838406 0.13505252629268566 0.11580957660264163 0.14685675055287356 0.07733289108460369 0.047979858163172885 -0.00594085618402818 0.11548814165873406
0.07519960922978344 0.012419376369739239 0.08017863594906272 -0.07108034124704446 -0.09741706887101992 0.038271037516038324 -0.0031650345434759454 0.0037361055377477426

W2 f8 [10, 10]
00000000: b763 77a0 d4f6 f23f 4b72 7f99 ca42 f03f
00000010: 59c8 b580 67f1 e3bf 66af 8980 981a bf3f
00000020: 4b11 f648 8adf e3bf 5f4f 9a25 3c34 edbf
00000030: 3d88 8aef e6ee ed3f 4408 096e d509 e73f
00000040: 07b9 8b3c f6b9 e7bf 618b aa81 44b5 debf
00000050: 8d1f ad5c a1bc c8bf 8221 9813 02a8 abbf
00000060: 0f93 c31b 60de ef3f b1a3 092e 529b e93f
00000070: 57f9 a1c4 3ef0 e0bf 11f4 aa66 3617 f2bf
00000080: c7c1 0b67 d0cd d33f 6a6c 353b 9f6f 0a3f
00000090: 6dd9 c344 c2ea ac3f 9886 7758 8851 e13f
000000a0: 854a b447 2325 e8bf 6283 cefe 1d20 e63f
000000b0: 1b81 153f 0413 e2bf eb98 ce98 3c61 ce3f
000000c0: e53b ebc4 e88b f23f d28c 052e 8ec0 b23f
000000d0: d7a7 62ea 374b dc3f a5b0 f17d 4197 c5bf
000000e0: 7045 c792 182b dc3f af94 b8ab 3885 f03f
000000f0: a18d 2df2 753b ed3f c410 6058 31ce cf3f
00000100: 80ae 347c b02e a03f b8f9 0468 3c77 ce3f
00000110: 8f7f b848 3aeb ed3f 51d7 adc1 1c2b a6bf
00000120: cc7b eef4 58a1 debf ee7d 5ab1 d1cf e93f
00000130: 2c8b c5e5 99a4 f03f ebda 23f3 b306 e73f
00000140: 48f1 4dbe ad09 b83f 9896 286b 7ac9 dc3f
00000150: 1a17 5417 fbe8 b2bf 639d ae0c 2b27 dd3f
00000160: 7a18 8764 e9b0 efbf bda2 fad4 5ed9 a5bf
00000170: cedb ddb8 8ee5 ddbf 8df1 72d3 bcae d7bf
00000180: 05f5 d92e ca54 e0bf cf7e 6bdd 6639 e33f
00000190: 0d90 2512 ac69 ebbf 09d9 40ac ee0a e7bf
000001a0: 941d df3c 6be7 b3bf 6eb1 cca9 bc21 b23f
000001b0: 8f87 f02d c6b5 a53f d555 00e6 065f e43f
000001c0: e98b 95b8 b1d1 c53f e37c a92b 8229 f43f
000001d0: 780a 9c4c 8329 eabf 9f07 a658 e7a0 da3f
000001e0: 4bd3 999b 629d ebbf 3705 cbf1 d4ff c53f
000001f0: 2a3f b32e de82 d5bf 74ad 7859 c46c cf3f
00000200: ee18 31c4 ff6e dc3f 68fb 2dca 9ce3 b5bf
00000210: d49e 052c d6e0 ee3f 97f5 cb42 b4c5 d23f
00000220: b013 c368 3eb0 df3f 556b 0aa6 4d72 f6bf
00000230: 1321 7752 ae47 d8bf ce53 4986 5e64 d5bf
00000240: 108b 0747 b9d7 e1bf 24e4 2f37 3958 f23f
00000250: 48d4 4ea0 0a98 e1bf 1abf d5dd 66dd be3f
00000260: 4b16 6094 b107 e13f fbb0 d96c 37ea d0bf
00000270: c4b8 29cc 1b32 e63f 9441 09d9 ba5c dcbf
00000280: f72e 5857 b816 cc3f fa00 a7bb bcc9 ce3f
00000290: 0c01 aae1 2c88 dd3f a306 aec4 a3d8 d1bf
000002a0: e05f b2f3 b950 d6bf f4a2 679e a90f e43f
000002b0: 1b88 1279 81ac e2bf ffe6 9681 1a77 dbbf
000002c0: 47f1 4d03 0882 e7bf ef9a a639 53d3 dabf
000002d0: 980c c026 0576 e23f 0b57 7e3b a643 dc3f
000002e0: 00b7 2f21 58d6 f03f 937a 0936 ca57 e6bf
000002f0: c44a 3d3f 0ec7 cdbf 6fc0 1d08 0b1c e73f
00000300: 2e5c 712a 3d23 e23f c4ae 1828 e5f3 b3bf
00000310: 987e 6821 d15e cdbf c322 efc7 7706 e4bf
1.185261370488872 1.0163064952859198 -0.6232182992810166 0.12149956834917716 -0.6210376191161598 -0.912626336520116 0.9354128531015317 0.7199504040838822
-0.7414504225287438 -0.4798136965056781 -0.19325654053886546 -0.05401617516696701 0.9958954374565979 0.8002100848362855 -0.5293268051607737 -1.1306671152553955
0.3094368940646998 5.042271313967439e-05 0.056478567976159556 0.5412027099484531 -0.754533424422633 0.6914205528920372 -0.5648213607892417 0.23734242879181208
1.1591575328964094 0.07325066207481548 0.4420909680289901 -0.1686784615479883 0.4401303704626889 1.0325247485973639 0.9135083894765793 0.24848000350187338
0.03160621181663448 0.23801379279207224 0.9349643154455282 -0.04329767097708149 -0.47859786910151736 0.8066185440001712 1.0401858306365268 0.7195682286099702
0.09389768501381923 0.4497972532720751 -0.07386750525992306 0.4555156349037672 -0.9903456653053262 -0.04267402982560984 -0.4671360783899531 -0.37004013680759656
-0.5103503146234806 0.6007570576293463 -0.8566494326046282 -0.7200845112154478 -0.07774992214318949 0.07082728524682633 0.04240245161805866 0.636599969121273
0.1704618598260759 1.2601339059399883 -0.8175674911766029 0.4160707822521718 -0.8629620589332289 0.1718698673849219 -0.3361125427299948 0.2455068051216177
0.44427484664301076 -0.08550434051538292 0.964945875149136 0.29331690333477795 0.4951320670191377 -1.402906082722173 -0.3793750577283543 -0.33425105203542393
-0.5575834643644573 1.1465389400239099 -0.549809754468364 0.12056582370655314 0.5321891687351096 -0.2642954409591451 0.6936167705114475 -0.4431597823613853
0.2194433619009641 0.24053153193199944 0.46143648183353103 -0.2788476391507208 -0.3486771468974421 0.626911935219225 -0.5835578312583068 -0.42914450316639824
-0.7346229614773073 -0.4191482604023084 0.5769067532386485 0.44162898836053505 1.052330140718766 -0.6982165389452625 -0.2326371964250794 0.7221732290763735
0.5668016270600498 -0.07794029454151558 -0.229456082642163 -0.6257895379031527

W3 f8 [10, 10]
00000000: ac00 f1ad 51cc d9bf beb9 cdcd a172 e5bf
00000010: 636b f400 3d91 f4bf 7b7a 316b 91ba ec3f
00000020: bcb2 a6dc f49e e1bf 365d 0c18 36da bcbf
00000030: 1565 5ff1 05fb c43f c7f8 5f1e 71f2 de3f
00000040: 5e5a d154 9240 d03f 5d05 dca7 72b3 993f
00000050: b42a 1f91 b26d df3f 0504 dae1 e1ae cfbf
00000060: 067b 2d2c dac7 d03f 0bb6 9093 0279 d2bf
00000070: 3468 d7c5 9256 c03f 9fc3 1591 bcfa f83f
00000080: c48c a4d5 fccf ecbf 6adb d00e eecb be3f
00000090: 6710 632a e92d d83f b2fc a39f 93a7 e0bf
000000a0: e2b9 07b0 f84e babf f7a7 c087 0239 f23f
000000b0: c56b 6489 b13e bd3f c1bd d7dc 2902 be3f
000000c0: e16b ac13 f19f e1bf 4f61 bbf8 adc5 a03f
000000d0: f2ef ebb9 800a e9bf f5c8 7deb d4c0 c1bf
000000e0: bd0d 790c c8cb b53f 888d 7d5f 5b76 e93f
000000f0: 427d 32f9 3bbc e73f c01b 9cfb f70d 873f
00000100: 2c85 0580 84c0 e83f 18db ccd1 5cc3 a53f
00000110: 9c27 d9b8 c8a8 e0bf 380e 43e0 f2f0 e6bf
00000120: b22b 397a 374d e4bf 56f2 511e 295a e9bf
00000130: e76d f809 8d69 d53f 3efc 66d4 42ed e13f
00000140: 945d be73 cdac e6bf 61d0 9252 ad98 cb3f
00000150: 0219 077e af6f ef3f 92ba 1992 c890 eabf
00000160: 5b6a 43bf 239a db3f c3a3 d473 bfdc b73f
00000170: 7966 6d8b 9f11 d03f c340 24b2 08d7 f33f
00000180: dd4a df75 fab0 e43f 6098 8c4b 5e4b d6bf
00000190: 1160 f26d d8e0 f13f 4d5c 066c 3e15 e0bf
000001a0: e469 f7fc 3dfa d9bf 6a1a a7bd 1de3 b7bf
000001b0: 9efd 4b3a b55e d73f 1f4b 5e22 d73f eabf
000001c0: 4eab 1791 b2ae e13f 6c52 68b9 ba87 c03f
000001d0: 6411 4c43 ae78 d9bf 0e8e 4b7c c521 86bf
000001e0: dd09 e9d7 2423 c5bf 35e5 3503 4058 ebbf
000001f0: 6456 a0eb bf48 b5bf d234 2bbb 57f2 e5bf
00000200: dbd2 5cf5 9045 e7bf 7e67 0a2a db27 dc3f
00000210: 49e3 5a24 cfb9 b6bf 81b9 988f d7e2 b13f
00000220: bf83 128c 3993 e23f 93fd 437c 0a4c f53f
00000230: 04c6 02c5 3c23 f5bf 516e 1682 0b2a dabf
00000240: 4a24 7a62 6427 e83f 9a1d e27e f1a1 ee3f
00000250: 27f3 3477 f140 debf 2d82 bb6d c302 83bf
00000260: 6ad8 49ac d490 e6bf 1ad2 a7b6 36c9 e23f
00000270: d498 5b2d 2259 b2bf 9b1c d5c7 fc33 ebbf
00000280: 2b69 3fb6 404e d73f 9eb4 180c 6f41 dc3f
00000290: 9a8e 4477 d1ca 9ebf 07fc 8892 30ae c83f
000002a0: 718c c863 77c1 dbbf dac4 5cd3 a026 d73f
000002b0: c52a 6d66 1dc2 e73f 9e74 8da9 57b3 c73f
000002c0: b1d0 5879 c684 ccbf 5800 7d4a 2b17 e6bf
000002d0: 59fa 48b6 0acb e0bf 2d36 1746 f536 f7bf
000002e0: 209e f725 48c5 f13f cdaa d90b 307f c23f
000002f0: 84b1 02c8 7bb4 d13f 1b15 e4b0 45cb d7bf
00000300: 7fed b1a8 a5c3 e73f 86ad 8227 7669 edbf
00000310: 3423 027b 7a86 ed3f d9cb 7328 4638 cbbf
-0.4030956457754751 -0.6702431697465767 -1.2854585683150723 0.8977744191759734 -0.5506538686364233 -0.11270464026562341 0.16391062055371522 0.48354747740075904
0.25394113810526686 0.02509860181362932 0.4910704056934876 -0.24752448585425682 0.26219801248764474 -0.2886358681742826 0.12764200840212114 1.5612149875052876
-0.9003891155920418 0.12029922353472747 0.3778021730361218 -0.5204561346034977 -0.10276750848399943 1.1389184286913385 0.11423787693313077 0.1172205127875179
-0.5507741340874156 0.032758175480639744 -0.7825320845872723 -0.13869725702858884 0.08514070801270797 0.7956978669212029 0.7417278163083341 0.011257111898442917
0.7735006809636267 0.04250612317121333 -0.5206035242383567 -0.7169126873126919 -0.6344258677648809 -0.792255934924081 0.33456731771158704 0.5602125309450299
-0.7085940609567154 0.21559683353337092 0.9823834859351168 -0.830173764565034 0.4312829368406363 0.0932120950498208 0.25107563606216093 1.2399985273987546
0.6466038038436995 -0.34835011842586106 1.1173939032360105 -0.5025932416782638 -0.40589856818919956 -0.0933092678088571 0.36515551274347924 -0.8202930136925238
0.5525753816449226 0.12914213231183014 -0.3979907662581097 -0.010806601386724981 -0.1651350073098702 -0.8545227110582007 -0.08314132216067943 -0.685832849086774
-0.7272419731367238 0.4399326239159719 -0.08877272260259618 0.06986758476043599 0.5804717765605502 1.3310646871685534 -1.3211028762565329 -0.40881622032040804
0.7548086093312432 0.9572684744061235 -0.47271381989758016 -0.009282614504116793 -0.7051795353898005 0.5870622222415165 -0.0716725693451708 -0.8500961211183439
0.36415117070795827 0.4414937608842794 -0.03007056513264548 0.1928158488753697 -0.4336832498976895 0.361732679756711 0.7424456596866881 0.1851605966466296
-0.22280198025840073 -0.6903282599305482 -0.5247853813414834 -1.450917505065614 1.1106645091148337 0.1445064599859819 0.276640839884543 -0.37178175234324023
0.7426327032875831 -0.9191237231911351 0.9226658251292066 -0.21265484786235225

b1 f8 [10, 1]
00000000: bf2a fef7 6c53 d33f be45 0a35 b6fe b2bf
00000010: 6f4a 7af0 8cbe 79bf 4d11 67ff 7a93 8b3f
00000020: 6bab 6731 e389 a73f 565f 2934 5965 c43f
00000030: 6395 c750 d4f4 c13f 3e6a e4cf 7b38 b2bf
00000040: 78d0 2b4d b426 c03f 9cb4 0e9c e1de a4bf
0.301966898136623 -0.07419909281659096 -0.006285238785170052 0.013464890403050456 0.0459738729294575 0.15934290930703793 0.1402840990478281 -0.07117437196249285
0.12618116157648607 -0.040762949275952226

b2 f8 [10, 1]
00000000: a5d4 890c 9988 ce3f c415 734a 0366 cfbf
00000010: d70f 7520 980b ab3f 8b88 d7e4 3046 c1bf
00000020: 45bf 1d45 a895 7bbf 5d57 10ae 3625 bdbf
00000030: cfc4 b362 4ed9 b4bf fbe3 c378 e567 cf3f
00000040: 4b95 c193 ddc5 823f 8281 27ad bd6d b53f
0.2385436354849492 -0.24530068526489235 0.052822832071370555 -0.13495455907747486 -0.006734521202687753 -0.11384908437352466 -0.08144082936975681 0.24535816570985944
0.009166461059246919 0.0837057636013068

b3 f8 [10, 1]
00000000: 8807 26e8 07a1 ae3f a2b3 9d4e 1e8d b53f
00000010: ce06 c9b1 0826 c2bf 7bb3 fbb1 5c82 cbbf
00000020: 489f 00df 29d1 cd3f 2fdc ea64 f175 e13f
00000030: 242a ecde 2780 94bf 04d6 ba86 f225 d23f
00000040: 01e4 9f68 f0ee e8bf 6c1f 617d e6bd a9bf
0.059822318161436405 0.08418454570137482 -0.14178570443077948 -0.21491583529077815 0.2329456652525954 0.545647332290974 -0.0200201253710849 0.283566123554323
-0.7791673701714218 -0.05027694969663696
